wifi_traffic_dataset/global_model.pt (torch, 3197 bytes, 4 tensors)

conv1.bias f4 [16]
00000000: 0000 0000 d2ef 44bd f6a1 94bc 715c b3bb
00000010: c6be a1bd 7f3d 0f3d 6ff4 143d d004 4abd
00000020: 6d3d 833d 3ec7 9c3c 6c80 9dbd b1b9 50bd
00000030: 5be1 903d 0000 0000 9509 91bd 11ef 173b
0.0 -0.048080273 -0.018143635 -0.0054736664 -0.07897715 0.034970757 0.036365923 -0.049320996
0.064082004 0.019137975 -0.0769051 -0.05095834 0.07074233 0.0 -0.07081906 0.0023183266

conv1.lin.weight f4 [16, 18]
00000000: ccbc c4bd 300a 99bc bcfe 82be 8a7b 113e
00000010: fe00 083e c0fa 0dbc 947d c1bd 6695 84be
00000020: 53bd 943e ed1c a0be 6239 303e 14a5 10be
00000030: 968a 4fbe ec8d 9a3d e873 5fbe 8439 c63d
00000040: e4f3 a83d 66b2 9fbe 38ea 0d3e fc09 7d3e
00000050: 8d90 6d3e 0001 603c 5bc8 bdbe 08d9 a2bd
00000060: 7d73 5b3e 00e8 a9bd 8719 693e 8df0 963e
00000070: 171a 74be 82dd 6b3b ba47 0f3e 1c15 16bd
00000080: 6c23 d23d ca6c 6e3d 8476 93be a8a4 2a3d
00000090: 8bd6 613e 739c 9d3e 4f8d 353e e039 64bc
000000a0: c5cb 1b3e 546c 83be bad4 d6be e61b debe
000000b0: c763 b23e 132e 4f3e b2d4 afbe 78fc d23d
000000c0: 1399 893e 1a8f fd3e b0f7 963e 67c5 863e
000000d0: 8768 27be d47d 57be 0bab 8c3e 7958 283e
000000e0: a9f6 a3be 2096 9e3e dd2b 2a3e 6c19 3a3e
000000f0: 509d abbe 89c6 473d 056d 5fbe 5873 883e
00000100: a7cc fcbd 612c d83d 18e1 263d 84d6 803e
00000110: ba51 5bbe 682e 153e b4ab b7be 7e23 0e3d
00000120: f03b 72be df51 b9be a5f9 c6be 3610 843e
00000130: 81ff 183e 1a58 a23e 33c4 c83e 49ae a1be
00000140: 8e69 70be 3929 cfbd c5a3 b0be 101f 813e
00000150: 115e c8be 9977 88be 21ad b4be 31e8 90be
00000160: 52a5 9e3e 8e9e 9c3e c3dd 723e c6e6 853e
00000170: 5b22 a03e 5432 29be f51b 3a3e fdaa b73e
00000180: 3b4d 9a3d 3e45 b33e 54af 1e3e 9f40 583e
00000190: 4e74 1dbe 8572 243e c88e 723d e3c9 12bd
000001a0: a1bf 9bbe aa68 8bbe 6b67 c5be 3491 723e
000001b0: 3e1e 783e f7bc d5bd 722e 97be fa1f 8c3e
000001c0: aac6 8e3e 014b f63c d9a2 82be 6f44 a43e
000001d0: 2112 ec3d 4c87 b4be 4111 cb3e 4f6e 973e
000001e0: 45c0 10be 5a5f 9a3e b4fd 96be 95cf bbbd
000001f0: 14f7 9e3e 8e66 47bc 2c0e 6abe 74a8 93bd
00000200: d587 56bd 24a7 99bc cd62 0b3c 170e bc3e
00000210: 8ae3 ba3d 1969 3fbe 47f8 b73d 0b48 603e
00000220: 0d37 3e3e 2d43 c3be fbf0 e1bd 5fca c5be
00000230: 81ea dabd 06bf 1e3e b77f 83be 8eca 293e
00000240: 8e38 db3e a2e4 cb3d b2f8 5ebe a115 b7bd
00000250: 7dad 263e 916b 7dbe b7a2 8f3e 4c74 a7be
00000260: 2de7 a9be aa8a bebe d2eb 56bd dd46 9f3e
00000270: 4aba afbe 7593 d83e 8f1c c0bd 4195 3c3e
00000280: b54c bb3d 5b06 b0be b4d3 da3e abcf 9b3e
00000290: a1c2 fd3e 5d83 943e 336d 97be f189 9d3e
000002a0: 1e87 cd3d 0b0b 8b3e a666 84be 3575 80bd
000002b0: bbe2 abbe 6712 e4bd 8a9a 273e dd39 8dbe
000002c0: 23bb 593e 9b39 9b3e f6a3 d93d 6dc9 5cbe
000002d0: 4211 88be 3fc9 8ebd 54aa 6c3e 1692 ec3e
000002e0: 2683 433e de27 babd ce2e 553e 2ad4 b1be
000002f0: 6e10 99be 858e 343e 2545 90be 9edb 2d3e
00000300: 1d34 afbe ceca 8abe e46e 93be 661b 453e
00000310: 0d15 1fbd e6e5 983e 3589 a63e 71c9 983e
00000320: 878e 963d 5b5f 8ebd 516a fbbd e713 143d
00000330: abdd 8c3e 3f7b 64be b13d d63e 5db5 fbbc
00000340: 3825 bfbe f3da 67be 3c61 ab3e 014b 9e3e
00000350: 493a a3be e108 993e bdd8 7d3e 7059 833e
00000360: 2de3 923e 961d 97be 909d 7a3d ce1c d23d
00000370: e692 4fbd f750 5d3e c30f 42be 22ec 3f3e
00000380: 4dc5 3dbe aea5 b5bd 6155 333e 2f34 5f3e
00000390: afd1 0dbe 58de 243d 5b46 2e3e 83bb de3c
000003a0: f18d 9e3d 6645 05bd e6c5 163e 0ece 9bbe
000003b0: 34f3 7cbe 2459 5abe e5a9 c53e 7080 e7bd
000003c0: 0056 96ba dd69 50be 1bb7 d63e af10 d23e
000003d0: 7636 a2be 805c aebe 0b08 a3be 00c6 04bb
000003e0: 504d dbbd 1bc8 8cbe e049 1abe 148b a23d
000003f0: da24 11be a7b9 2f3e 8d35 f3bc 14db 09be
-0.09606323 -0.018681616 -0.25584972 0.14207283 0.13281628 -0.0086657405 -0.0944778 -0.25895232
0.29050693 -0.3127207 0.1720939 -0.14125472 -0.2026771 0.07546601 -0.21821558 0.09678939
0.082496434 -0.31190795 0.13858879 0.2471084 0.23199673 0.013672113 -0.37066922 -0.07951552
0.21430774 -0.082962036 0.22763644 0.294804 -0.23838077 0.0035990183 0.13992205 -0.036641225
0.102606624 0.058209218 -0.28801358 0.041660935 0.22054498 0.30783424 0.17729686 -0.013929814
0.1521445 -0.25668585 -0.41959172 -0.4338066 0.3484175 0.2023242 -0.3434196 0.10302061
0.268746 0.4952324 0.29485846 0.2632248 -0.16348468 -0.21044093 0.27474245 0.1644
-0.32024124 0.3097391 0.16618295 0.1817376 -0.33518457 0.048773322 -0.21818931 0.266505
-0.12343722 0.105553396 0.04074201 0.25163662 -0.21417895 0.14568484 -0.35873187 0.034701817
-0.23655677 -0.36195275 -0.3886234 0.25793618 0.14941217 0.3170784 0.39212188 -0.31578282
-0.23477766 -0.101152845 -0.34499946 0.2521901 -0.39134267 -0.26653746 -0.35288337 -0.28302148
0.30985504 0.30589718 0.23717408 0.2615263 0.3127621 -0.16523105 0.18174727 0.3587264
0.07534262 0.35013765 0.1549657 0.21118401 -0.15376398 0.1605931 0.059218198 -0.035837065
-0.3041964 -0.2722829 -0.38555464 0.23688203 0.24230286 -0.10436433 -0.29527622 0.27368146
0.27885944 0.030065062 -0.25514868 0.3208346 0.11526895 -0.35259473 0.396616 0.29576346
-0.14135845 0.30150872 -0.29490435 -0.091704525 0.3104788 -0.012170447 -0.22856969 -0.07209864
-0.052375633 -0.018756457 0.008507443 0.367295 0.09125431 -0.18692435 0.08982902 0.21902482
0.18575688 -0.3813719 -0.110322915 -0.3863096 -0.10689259 0.15502557 -0.25683376 0.16581175
0.42816585 0.099557176 -0.21774557 -0.08939672 0.16277118 -0.24748065 0.2805383 -0.32705915
-0.33184186 -0.37215167 -0.05247099 0.31108752 -0.34321815 0.423 -0.09380447 0.18416311
0.0914549 -0.3437985 0.42739642 0.30431876 0.49562553 0.29006472 -0.295755 0.30769303
0.10035537 0.27156863 -0.25859565 -0.062723555 -0.3357142 -0.111363225 0.16367546 -0.2758321
0.21262793 0.30317387 0.10626976 -0.21561213 -0.26575667 -0.069719784 0.2311185 0.46205205
0.19092998 -0.09089635 0.20818636 -0.3473218 -0.29895347 0.17632492 -0.28177753 0.16978309
-0.34219447 -0.27107853 -0.2879554 0.19248733 -0.038838435 0.298629 0.32526556 0.29841188
0.07351404 -0.06951781 -0.122761376 0.036151793 0.2751287 -0.2231264 0.41843942 -0.03072613
-0.37333083 -0.22642116 0.3347262 0.30916598 -0.31880406 0.29889587 0.2478971 0.25654173
0.28688946 -0.2951476 0.06118542 0.102594 -0.050677203 0.21612917 -0.18951325 0.18742421
-0.18532296 -0.088694915 0.17513038 0.2179725 -0.13849519 0.040251106 0.17019026 0.027189022
0.07741917 -0.032536887 0.1472393 -0.30430645 -0.2470215 -0.21323067 0.38606182 -0.113037944
-0.0011469722 -0.20352884 0.41936573 0.41028354 -0.31682175 -0.34054947 -0.31842074 -0.0020259619
-0.107081056 -0.27496418 -0.15067244 0.07936683 -0.14174214 0.17160664 -0.029688621 -0.13462478

conv2.bias f4 [2]
00000000: fab4 24bd fab4 243d
-0.040211655 0.040211655

conv2.lin.weight f4 [2, 16]
00000000: 5897 91be 9df4 2fbd 8221 d83b 0bdb c7be
00000010: 0b6e ef3e e527 4dbe eedd 553e 8b01 ff3e
00000020: 14cc b83e 9210 263e ce06 f03e 8349 b93d
00000030: 82b1 abbe 00d2 0b3f 17b6 df3d a9ed 03bf
00000040: c24f 28be c337 cdbe 7d61 e33e 1a76 1ebe
00000050: e738 03bf 5f9b b9bd 6b90 b73e 3bce 1d3e
00000060: 9001 e73d cea2 dbbc 5e64 733e f437 1dbe
00000070: 2d52 25be c726 0abf 36a7 d0be 6c1d 4f3e
-0.2843578 -0.04295789 0.0065957913 -0.39034304 0.46763644 -0.2003475 0.2088544 0.49805865
0.360932 0.16217259 0.46880192 0.090472244 -0.33533865 0.5461731 0.10923403 -0.51534516
-0.16436675 -0.40081605 0.44410315 -0.1547474 -0.512587 -0.09062838 0.3585237 0.15410702
0.11279595 -0.02681103 0.23768756 -0.15353376 -0.16144629 -0.5396542 -0.40752572 0.20226067
